PG.pt (torch_old, 1084 bytes, 4 tensors)

layer1.weight f4 [16, 2]
000000 c5 df e6 bd e9 c4 b8 bf 6e 0f 41 bd 8e ac 01 3f
       -0.112731494 -1.4435092 -0.047133856 0.5065392
000010 e9 c1 e1 3e de 67 f2 bf e1 4a 28 bd c6 aa 1d c0
       0.44093254 -1.8937948 -0.041087035 -2.4635482
000020 44 81 d8 be df 10 e9 bf 63 6f 91 3e 3c 7c 23 c0
       -0.42286122 -1.8208274 0.28405294 -2.5544577
000030 37 f2 0d bf 75 8f 93 3f 80 a9 0a 3f 0c a7 de 3f
       -0.55447716 1.1528155 0.54164886 1.7394729
000040 9f 75 89 be 7a 18 08 c0 b1 cb d1 be e7 da e1 3f
       -0.2684755 -2.126494 -0.40975717 1.7644929
000050 d5 0e ee be c9 33 4d 3f f8 a7 10 bf 08 05 09 c0
       -0.4649569 0.8015714 -0.565063 -2.140932
000060 d5 92 32 3f 51 0d ed 3f a7 9a 86 bd 12 f4 02 40
       0.697553 1.8519689 -0.06572466 2.0461469
000070 5e df 38 3e bc 8c 43 3f 1a 06 87 3d fa a8 e4 bd
       0.18053958 0.7638662 0.06592961 -0.11165042

layer1.bias f4 [16]
000000 3b fd 1f 3e fa 79 83 be ee dc 48 3e 51 ff 33 bd
       0.15623944 -0.25678998 0.19615528 -0.04394466
000010 73 cd 36 bf 52 b0 77 3e 25 1c 8a 3e 34 bd 01 bf
       -0.7140724 0.24188355 0.26974598 -0.50679326
000020 f6 05 b8 be e1 d1 a7 be 54 c3 83 be 67 bd 18 bf
       -0.35942048 -0.32777312 -0.2573496 -0.59664005
000030 09 e5 b6 3e 6b 8b 2e 3e 97 9d f5 3e 49 29 01 bf
       0.35721615 0.17045371 0.47971794 -0.5045362

layer2.weight f4 [2, 16]
000000 5d f4 6d be f4 87 8c 3d a6 ae b9 be 2c 11 ec be
       -0.23237748 0.068618685 -0.3626606 -0.4610685
000010 01 ed 97 be c0 0d ca be 78 b1 77 3d 26 af 5c 3e
       -0.29673007 -0.39463615 0.06047198 0.21551189
000020 90 85 be be 14 84 87 3e 75 33 29 3e 4e c8 64 be
       -0.37211275 0.26467955 0.16523536 -0.22342035
000030 2a f0 44 3e 16 90 b2 3e 59 f6 81 3e 45 ef cf bc
       0.1923224 0.34875554 0.2538326 -0.025382647
000040 85 a5 98 bc 69 95 03 3e c7 3e a5 3c de 13 97 bb
       -0.018633613 0.12849964 0.020171536 -0.0046105227
000050 b7 58 e6 bd e8 03 49 3d 8d 59 dd bc a8 19 5e be
       -0.1124739 0.04907599 -0.02702024 -0.21689475
000060 15 5c cb bd 0e 51 9a 3c ce 6e c7 3d 66 01 31 bc
       -0.09929673 0.018837478 0.09737931 -0.010803556
000070 59 a5 06 be 49 f3 48 3d 0c 04 43 3e 48 59 42 be
       -0.13149013 0.04906014 0.19044513 -0.1897937

layer2.bias f4 [2]
000000 c3 ff 20 3e 36 9d 65 3e
       0.15722565 0.22423252
